Tensorflow/TfIntermed/quantized_model.tflite (tflite, 7704 bytes, 2 tensors)

model/embedding/embedding_lookup f4 [100, 8]
0	0xbd696b9a	-0.056987382
1	0x3c7dd794	0.015493292
2	0xbc8ff87e	-0.017574545
3	0xbc497469	-0.012295821
4	0x3c8ec8ca	0.017429728
5	0xbc098118	-0.008392595
6	0xbc734395	-0.014847656
7	0x3d873343	0.06601574
8	0xbcf64ba7	-0.03006537
9	0x3d0dcc4e	0.03461867
10	0xbca69478	-0.020334467
11	0xbad6423f	-0.0016346647
12	0x3ca7b032	0.020469759
13	0xbb034b85	-0.0020034027
14	0xbb20a28c	-0.0024510948
15	0x3d0c846d	0.03430598
16	0xbd227315	-0.039660532
17	0x3c8b529e	0.017007168
18	0xbc0522ae	-0.008125944
19	0x3c4f08ca	0.012636373
20	0x3d21e380	0.0395236
21	0xbd0ad04c	-0.033890054
22	0xbca7bed3	-0.020476734
23	0x3d93a7aa	0.07209714
24	0xbd6892ca	-0.056780614
25	0x3bb357c5	0.0054731094
26	0xba5906bd	-0.0008278897
27	0x3a47ce10	0.0007621953
28	0x3cbb4f74	0.022865035
29	0xbc1c53f3	-0.009541499
30	0xbcb6ccb7	-0.022314413
31	0x3d8fdc8c	0.07024488
32	0xbd2e8249	-0.04260472
33	0x3cdd6312	0.02702478
34	0x3a965ad0	0.0011471156
35	0x3cee9749	0.029124873
36	0x3cc22771	0.023700448
37	0x3ca4f699	0.020137118
38	0xbc8fd3e8	-0.0175571
39	0x3d5d4509	0.054020915
40	0xbd247e2f	-0.0401594
41	0x3c65f73f	0.014035999
42	0xbbb05746	-0.0053814976
43	0x3cb3a2e0	0.02192825
44	0x3cde22a4	0.027116127
45	0xbbcef284	-0.006315531
46	0xbc114f6b	-0.008869032
47	0x3d7090a4	0.05873169
48	0xbb88efa0	-0.004178956
49	0x3d9bbd9a	0.07604523
50	0xbc2821ba	-0.010261947
51	0x3cfa8978	0.030583128
52	0xbc2b7652	-0.0104652215
53	0x3c49dc7c	0.012320634
54	0xbd8184cb	-0.063241564
55	0xbc1ab38f	-0.009442224
56	0xbd8634c8	-0.06553036
57	0x3c6bafbb	0.014385159
58	0xbbed9eeb	-0.0072516105
59	0x3c7afb20	0.015318662
60	0x3c98d201	0.018654825
61	0xbb883282	-0.0041564116
62	0xbb1746a6	-0.0023082881
63	0x3d12d48f	0.035847243
64	0xbd1d32a8	-0.038378388
65	0x3c36227d	0.011116621
66	0xbc0d8b21	-0.008639128
67	0x39c41dca	0.00037406228
68	0x3cb58844	0.022159703
69	0xbb92c856	-0.0044794483
70	0xbc7b69a2	-0.015345009
71	0x3d3a703c	0.04551719
72	0xbcbc6a76	-0.022999983
73	0x3c8e39a8	0.017361477
74	0xbd10fa44	-0.035394922
75	0x3d02ca2e	0.031931095
76	0x3d0fdd1a	0.03512297
77	0xbb926f23	-0.004468815
78	0xbca2e257	-0.019883318
79	0x3d839fee	0.064269885
80	0xbd7f7699	-0.062368963
81	0x3d0133c5	0.031543512
82	0xbc4fd4b1	-0.012684987
83	0xbca06341	-0.019578578
84	0xbc20e1d7	-0.009819469
85	0x3cb26c0b	0.021780035
86	0x3bfd7611	0.007735022
87	0x3d04f9b6	0.032464705
88	0xbd83f5a4	-0.064433366
89	0x3bdac843	0.006676705
90	0xbbc884b6	-0.006119336
91	0xbc7037a8	-0.014661707
92	0x3cf3d3ee	0.029764142
93	0xba8c527e	-0.0010705737
94	0x3b946be9	0.0045294655
95	0x3d157a4e	0.036493592
96	0xbcf238b6	-0.029568058
97	0x3ceadd57	0.028669996
98	0x3c690a17	0.014223597
99	0x3c43c74f	0.011949374
100	0xbbe02cf5	-0.006841297
101	0x3d35357c	0.04424046
102	0x3b54ef21	0.0032491165
103	0x3d5f0fed	0.054458547
104	0xbccb8050	-0.024841458
105	0x3a927587	0.0011173942
106	0xbc1abf9e	-0.009445099
107	0x3cc80468	0.024416164
108	0x3c9f0a99	0.019414233
109	0xbba34c4e	-0.0049834615
110	0xbc9a8d02	-0.018866066
111	0x3d657a41	0.056024794
112	0xbc93ff92	-0.018066201
113	0x3b7b8464	0.0038378472
114	0xbca07162	-0.019585315
115	0xbc1412cf	-0.009037687
116	0x3d95e8be	0.07319783
117	0x3ce0b537	0.02743016
118	0xbd020994	-0.031747416
119	0x3d16cc3e	0.036815874
120	0xbd1fa126	-0.038972043
121	0xbb4082ac	-0.0029374762
122	0x3c408a24	0.011751685
123	0x3d6cd3e1	0.05781925
124	0x3c9e8a82	0.019353155
125	0x3d04650b	0.032322925
126	0xbc9d4db6	-0.019202095
127	0x3d13f5e5	0.036123175
128	0xbd1452c7	-0.036211755
129	0x3bf814fd	0.0075708614
130	0x3b202dd8	0.0024441388
131	0x3bf22c3d	0.0073905275
132	0x3c8b6bb3	0.017019128
133	0xbc538caa	-0.012911955
134	0xb9986964	-0.0002907022
135	0x3d607f91	0.054809157
136	0xbd5b8efe	-0.053603165
137	0x3cfe0cd0	0.031011969
138	0xbb9bad79	-0.004750904
139	0x3b3a0e51	0.002838988
140	0x3c210b12	0.0098292995
141	0xbc27bc2d	-0.010237736
142	0xbcd00c38	-0.025396451
143	0x3d09c70b	0.033637088
144	0xbd1f7b55	-0.038935978
145	0x3c5ab9c5	0.013349955
146	0xbb3a3fc7	-0.0028419362
147	0xbc9ee752	-0.019397411
148	0x3d79440f	0.06085592
149	0x3bc4c1ab	0.0060045323
150	0x3c3bd451	0.011464194
151	0x3c9c5e23	0.019087857
152	0xbd279997	-0.04091796
153	0x3c795d0e	0.01521994
154	0xbb2e1707	-0.0026564018
155	0xbb20047e	-0.002441674
156	0x3d02338c	0.03178744
157	0x3b0c5ada	0.0021416456
158	0xbd1130d2	-0.03544695
159	0x3d5bc60e	0.053655677
160	0xbd696dbe	-0.056989424
161	0x3d11c515	0.035588343
162	0x3c03b1c5	0.008037989
163	0x3c9116c2	0.017711047
164	0xb9aa02d9	-0.00032427048
165	0xbbd7ac27	-0.0065818015
166	0xbcaacbe9	-0.020849185
167	0x3d881567	0.06644707
168	0xbd4d91fa	-0.050188042
169	0xbb37bcdd	-0.0028036155
170	0xbbf6269c	-0.007511927
171	0xbd060d29	-0.032727394
172	0x3cb3ffd3	0.021972572
173	0xbcac65ab	-0.021044573
174	0x3c05ceae	0.008166952
175	0x3cb79559	0.022410082
176	0xbc06ebc6	-0.008234924
177	0x3d8bdbb4	0.068290144
178	0xbd1f2a1e	-0.038858525
179	0x3d101d60	0.035184264
180	0xbc4ddbca	-0.012564609
181	0x3cbb4e5d	0.022864515
182	0xbab300ed	-0.0013656892
183	0xbb0380a1	-0.0020065682
184	0xbda5855e	-0.080820784
185	0xbc8e747a	-0.017389525
186	0x3c7ae5c6	0.015313571
187	0x3bbe5f70	0.005809717
188	0x3ccdcec5	0.02512301
189	0x3c2ab038	0.01041799
190	0xbbfe7ca7	-0.0077663246
191	0x3d503e54	0.05084069
192	0xbd500d8a	-0.05079416
193	0x3c6b3426	0.014355695
194	0xbc77d3fd	-0.015126226
195	0xbb67be5f	-0.0035361273
196	0x3cad12a3	0.02112705
197	0xbb6fc5d0	-0.0036586411
198	0xbc80a4d0	-0.015703589
199	0x3cd99120	0.026558459
200	0xbd1e8e7a	-0.038710095
201	0xbb51c1d1	-0.0032006393
202	0x3cc020b4	0.023453094
203	0x3ca61e73	0.020278191
204	0x3c5b6995	0.013391872
205	0xbc812b01	-0.015767576
206	0xbd1edd0a	-0.038785018
207	0x3d8d0220	0.06885171
208	0xbd1d58c4	-0.03841473
209	0xba5c9d86	-0.0008415807
210	0xbc95450b	-0.018221399
211	0x3c85e039	0.01634227
212	0x3cb3be89	0.02194144
213	0xbc09a2df	-0.008400648
214	0x3be6d4e0	0.0070444196
215	0x3d53afbe	0.051681273
216	0xbc844698	-0.016146943
217	0x3cf9a5a0	0.030474484
218	0xbd22851f	-0.039677735
219	0x3d35a3b2	0.044345565
220	0x3b92abad	0.0044760318
221	0xbd031a5f	-0.03200757
222	0xbcb618a0	-0.022228539
223	0x3d551556	0.0520223
224	0xbcb88f57	-0.022529287
225	0x3c557644	0.013028685
226	0x39b692cd	0.0003482312
227	0x3c6e0e86	0.01452983
228	0x3c48dcde	0.01225969
229	0xbc3efdac	-0.01165716
230	0xbb734b02	-0.0037123566
231	0x3d4ec7d6	0.050483547
232	0xbd152cb9	-0.036419604
233	0x3c12d3f7	0.008961669
234	0xba34c791	-0.0006896193
235	0x3c656238	0.014000468
236	0x3bed01ef	0.0072328965
237	0xbbc46c43	-0.005994351
238	0xbb8c9e44	-0.0042913277
239	0x3d2dc405	0.042423267
240	0xbd076d71	-0.033063356
241	0xbaf1a9b6	-0.0018437419
242	0x3c5c7c1c	0.013457324
243	0x3d0fda64	0.035120383
244	0xbc77ba52	-0.015120106
245	0x396ab33b	0.00022382748
246	0xbcf4a9f3	-0.029866194
247	0x3d37b488	0.044849902
248	0xbd95328e	-0.07285033
249	0x3be027a1	0.0068406616
250	0x3bf0c175	0.0073472806
251	0x3c1cf746	0.009580439
252	0x3d16182d	0.03664415
253	0xbbb56bb4	-0.005536521
254	0xbc1054d9	-0.008809292
255	0x3d8f9fd4	0.07012907

model/embedding_1/embedding_lookup f4 [50, 8]
0	0xbd1523cb	-0.036411088
1	0x3ba9aba3	0.0051779314
2	0x3c3b777e	0.011442063
3	0x3cc0e2f1	0.023545714
4	0x3cdeae6e	0.027182784
5	0x3aad769e	0.0013234203
6	0xbc80761d	-0.01568132
7	0x3d457b56	0.048213325
8	0xbd10fcc7	-0.035397317
9	0x3cb1ff11	0.02172807
10	0x3afef3d9	0.0019451334
11	0x3bc84841	0.006112129
12	0xbc3e4c32	-0.011614846
13	0x3c0c8e9c	0.008578923
14	0x3bad1f61	0.0052832817
15	0x3d93629e	0.07196544
16	0xbcbf0b63	-0.02332086
17	0x3c6967de	0.014245955
18	0x3be743e5	0.007057654
19	0x3cfad036	0.03061686
20	0x3d2a15cd	0.041524697
21	0xbbfe6761	-0.0077637886
22	0xbc946f0a	-0.018119354
23	0x3da30583	0.07960036
24	0xbd2ee5b0	-0.042699516
25	0x3be487c1	0.006974191
26	0x3bb4c334	0.005516434
27	0x3bd359dc	0.006449921
28	0x3c89737d	0.016778702
29	0xba8f1227	-0.0010915444
30	0xbc2fa071	-0.010719405
31	0x3d2f9c57	0.042873707
32	0xbd6ff351	-0.058581654
33	0xbc2f2844	-0.010690752
34	0x3c043d76	0.008071294
35	0x3d1c2537	0.03812143
36	0x3d0f4bf9	0.034984563
37	0x3cbbdb76	0.022931796
38	0xbc0189e8	-0.007906415
39	0x3d8ae52e	0.06781994
40	0xbd1fbd99	-0.038999174
41	0x3cb446ae	0.022006359
42	0x3c1593c3	0.009129467
43	0x3c347279	0.0110136205
44	0x3bd93b7a	0.0066294046
45	0xbbbe042e	-0.005798838
46	0xbccd46a2	-0.025058094
47	0x3d65a798	0.056068033
48	0xbd5c89b6	-0.05384227
49	0xbb6fb975	-0.0036579047
50	0x3be62cec	0.007024398
51	0x3b0a3947	0.002109127
52	0x3cc665f5	0.024218539
53	0xbb90e929	-0.004422326
54	0xbb4cca57	-0.0031248534
55	0x3d6b536a	0.057452597
56	0xbd3d014e	-0.046143822
57	0x3c99fae9	0.018796401
58	0x3b82d7f2	0.003993028
59	0x3c89ce97	0.016822143
60	0x3cdd1209	0.026986139
61	0x3869c138	5.5731478e-05
62	0xbc1a18d3	-0.009405333
63	0x3d5a0cfe	0.053235047
64	0xbd345ab2	-0.044031806
65	0x3b7ca2e4	0.0038549239
66	0x3c946fc7	0.018119706
67	0x3c2ee963	0.010675761
68	0x3c770dc6	0.015078967
69	0xbc2f63c4	-0.010704938
70	0xbcdf08b0	-0.027225822
71	0x3d764efc	0.06013392
72	0xbd52d905	-0.051476497
73	0x3cbe7a7f	0.02325177
74	0x3d1a2386	0.037631534
75	0x3c930628	0.017947271
76	0x3c8574c2	0.016291026
77	0x3ca86ef2	0.020560715
78	0xbcda5d43	-0.026655799
79	0x3d958339	0.07300419
80	0xbcfd282e	-0.030902948
81	0x3ba90305	0.0051578307
82	0xbb95fea1	-0.0045774733
83	0x3bd6bfee	0.0065536415
84	0x3bb106d1	0.005402424
85	0xbb43e7af	-0.0029892733
86	0xbc127f63	-0.008941504
87	0x3d054d5f	0.03254449
88	0xbd699b6f	-0.057033
89	0x3cac2d29	0.021017628
90	0xbb82a819	-0.003987324
91	0x3c12af01	0.008952857
92	0x3cd7cb20	0.026341975
93	0xbb8fae0d	-0.004384762
94	0x3a6eac3d	0.0009104645
95	0x3d581cc7	0.05276182
96	0xbc718da5	-0.014743243
97	0x3d062b20	0.03275597
98	0x3c1d8bfa	0.009615893
99	0x3cd3cf4f	0.025855688
100	0xbb4bdb83	-0.003110618
101	0xbb4c95b6	-0.0031217164
102	0xbcb6ccfd	-0.022314543
103	0x3dbb99e9	0.091602154
104	0xbdac6c36	-0.08419077
105	0x3d2e2460	0.04251516
106	0x3c617008	0.0137596205
107	0x3c8bb738	0.017055139
108	0x3c8b56f1	0.01700923
109	0x3c36f67f	0.011167168
110	0xbc84e0a5	-0.0162204
111	0x3d06e973	0.03293748
112	0xbd5d9f9c	-0.054107293
113	0x3d82f461	0.06394268
114	0xbc3235af	-0.010877057
115	0xbc597b57	-0.013274035
116	0x3b9895f7	0.004656549
117	0x3a1848bb	0.00058091775
118	0x3b9f0097	0.0048523652
119	0x3d4f6e72	0.05064244
120	0xbd052df2	-0.03251452
121	0x3c52d8e6	0.012869095
122	0x3c203d64	0.009780262
123	0x3c4f454b	0.012650798
124	0x3cfbad13	0.030722177
125	0x3bfa011c	0.007629527
126	0xbc3492be	-0.011021314
127	0x3d6e930b	0.0582457
128	0xbd65351d	-0.055958856
129	0x3ad68486	0.0016366399
130	0x3caafd6e	0.020872798
131	0x3c1075f8	0.008817188
132	0x3d0e92a0	0.0348078
133	0xbc2b3245	-0.010448997
134	0xbc54870e	-0.012971653
135	0x3d5bccb8	0.053662032
136	0xbd090295	-0.033449728
137	0x3d19dfa5	0.0375668
138	0xbb89cf50	-0.004205622
139	0x3d19e0aa	0.037567772
140	0x3bd4d6c9	0.006495331
141	0xbd040e45	-0.03224017
142	0xbcce3c1b	-0.025175145
143	0x3d68f6c1	0.056875948
144	0xbd8df1f7	-0.06930917
145	0x3c761d9e	0.01502171
146	0xbb8e44d5	-0.0043417015
147	0xbc3c8197	-0.011505506
148	0x3d4d7024	0.050155774
149	0xbbf4c345	-0.007469567
150	0x3c10aad6	0.008829793
151	0x3d05211e	0.032502286
152	0xbcac99f5	-0.021069506
153	0x3c8655d0	0.01639834
154	0xbc735e61	-0.014854045
155	0x3d3d6631	0.046240035
156	0x3cc88ae8	0.024480298
157	0xbb335f27	-0.0027369948
158	0xbcdac73f	-0.026706336
159	0x3d840f9e	0.06448291
160	0xbd2baca6	-0.041912697
161	0x3cc94923	0.024571007
162	0xbc3b179f	-0.011419206
163	0x3cbed624	0.02329547
164	0x3c0a00cd	0.0084230425
165	0x3ccee416	0.025255244
166	0xbb670aeb	-0.003525431
167	0x3d1ae2c8	0.03781393
168	0xbd31c5c3	-0.04340149
169	0x3c034a54	0.008013327
170	0xbc8690ac	-0.016426407
171	0x3cb111a8	0.021614864
172	0x3cb34226	0.021882128
173	0x3c14655f	0.009057372
174	0xbb227f2f	-0.0024795046
175	0x3d4d3cc9	0.050106797
176	0xbd8be177	-0.068301134
177	0x3c1d6dbd	0.009608683
178	0x3ac3436f	0.0014897416
179	0x3cc08e4e	0.023505356
180	0xbcd53781	-0.026027443
181	0x3ca30a24	0.019902296
182	0xbc6b3535	-0.014355947
183	0x3d56fde7	0.052488234
184	0xbd342d88	-0.043988734
185	0x3cd98c99	0.0265563
186	0xba8bfde8	-0.0010680528
187	0x3ced8508	0.028994098
188	0x3cc39baa	0.023877937
189	0xbccf1a75	-0.02528117
190	0xba713ad4	-0.00092021865
191	0x3d744e9c	0.05964528
192	0xbd09ba27	-0.033624794
193	0x3d5044ed	0.050846983
194	0xbb63045b	-0.0034640047
195	0xbc5faedc	-0.01365253
196	0xbabe4b33	-0.0014518261
197	0x3d17b233	0.03703518
198	0xbcb3511c	-0.021889262
199	0x3cabee5b	0.02098768
200	0xbd5e09c0	-0.054208517
201	0x3ccc6056	0.02494828
202	0xbc5e9158	-0.013584457
203	0xbb2c173a	-0.0026258961
204	0x3ca4183c	0.020031087
205	0x3c39259e	0.011300473
206	0xbc211cd0	-0.00983353
207	0x3c47a219	0.012184643
208	0xbd05f460	-0.032703757
209	0xbcbd68ff	-0.023121355
210	0xbb032c70	-0.00200155
211	0x3d14ef91	0.03636128
212	0x3cd773a1	0.026300253
213	0xbbd0cabf	-0.0063718255
214	0xbcf29d44	-0.029616006
215	0x3d7b1519	0.061299417
216	0xbd419048	-0.047256738
217	0x3d25ed7c	0.040509686
218	0xbb2dc391	-0.0026514272
219	0x3c2e447e	0.010636447
220	0x3c8fa60c	0.017535232
221	0x3c0bf053	0.0085411845
222	0xb9ae74bc	-0.0003327484
223	0x3d959c49	0.073052
224	0xbcc540a3	-0.024078673
225	0x3d9255c2	0.07145263
226	0xbcc66486	-0.024217855
227	0x3d169b19	0.036769006
228	0x3acd6f07	0.0015673348
229	0x3cebd920	0.028790057
230	0x39ba4b34	0.00035532715
231	0x3d83bf3a	0.06432958
232	0xbd3349c6	-0.043771528
233	0x3c69eb37	0.014277271
234	0x3b54b296	0.0032455078
235	0xbbe44747	-0.0069665047
236	0x3d192c56	0.037395798
237	0x3bb22926	0.005437034
238	0xbd27be9d	-0.040953267
239	0x3d4927df	0.04911029
240	0xbc9a5df9	-0.018843638
241	0xbca38f7d	-0.019965881
242	0xbd1d4405	-0.038394947
243	0x3d009a0e	0.031396918
244	0x3cd7b60e	0.026331928
245	0xbbd794f4	-0.006579036
246	0x3b3f33eb	0.0029175233
247	0x3d6f0e23	0.05836309
248	0xbcd75681	-0.026286365
249	0xbbe30cb3	-0.006929004
250	0xbc93eefc	-0.018058293
251	0x3d00dfa2	0.031463273
252	0x3cd1b30f	0.025598077
253	0xbbe6f048	-0.0070476867
254	0xbc82a009	-0.015945451
255	0x3d99922a	0.07498582
